…
I1107 15:06:51.371459 27954 net.cpp:275] The NetState phase (0) differed from the phase (1) specified by a rule in layer accuracy
I1107 15:06:51.371574 27954 net.cpp:39] Initializing net from parameters: 
name: "CaffeNet"
layers {
  top: "data"
  top: "label"
  name: "data"
  type: DATA
  data_param {
    source: "/media/chenqi/C2CE0C08CE0BF407/ILSVRC2012/ilsvrc12_train_lmdb"
    batch_size: 256
    rand_skip: 100000
    backend: LMDB
  }
  include {
    phase: TRAIN
  }
  transform_param {
    mirror: true
    crop_size: 227
    mean_file: "data/ilsvrc12/imagenet_mean.binaryproto"
  }
}
layers {
  bottom: "data"
  top: "conv1"
  name: "conv1"
  type: CONVOLUTION
  blobs_lr: 1
  blobs_lr: 2
  weight_decay: 1
  weight_decay: 0
  convolution_param {
    num_output: 96
    kernel_size: 11
    stride: 4
    weight_filler {
      type: "gaussian"
      std: 0.01
    }
    bias_filler {
      type: "constant"
      value: 0
    }
  }
}
layers {
  bottom: "conv1"
  top: "conv1"
  name: "relu1"
  type: RELU
}
layers {
  bottom: "conv1"
  top: "pool1"
  name: "pool1"
  type: POOLING
  pooling_param {
    pool: MAX
    kernel_size: 3
    stride: 2
  }
}
layers {
  bottom: "pool1"
  top: "norm1"
  name: "norm1"
  type: LRN
  lrn_param {
    local_size: 5
    alpha: 0.0001
    beta: 0.75
  }
}
layers {
  bottom: "norm1"
  top: "conv2"
  name: "conv2"
  type: CONVOLUTION
  blobs_lr: 1
  blobs_lr: 2
  weight_decay: 1
  weight_decay: 0
  convolution_param {
    num_output: 256
    pad: 2
    kernel_size: 5
    group: 2
    weight_filler {
      type: "gaussian"
      std: 0.01
    }
    bias_filler {
      type: "constant"
      value: 1
    }
  }
}
layers {
  bottom: "conv2"
  top: "conv2"
  name: "relu2"
  type: RELU
}
layers {
  bottom: "conv2"
  top: "pool2"
  name: "pool2"
  type: POOLING
  pooling_param {
    pool: MAX
    kernel_size: 3
    stride: 2
  }
}
layers {
  bottom: "pool2"
  top: "norm2"
  name: "norm2"
  type: LRN
  lrn_param {
    local_size: 5
    alpha: 0.0001
    beta: 0.75
  }
}
layers {
  bottom: "norm2"
  top: "conv3"
  name: "conv3"
  type: CONVOLUTION
  blobs_lr: 1
  blobs_lr: 2
  weight_decay: 1
  weight_decay: 0
  convolution_param {
    num_output: 384
    pad: 1
    kernel_size: 3
    weight_filler {
      type: "gaussian"
      std: 0.01
    }
    bias_filler {
      type: "constant"
      value: 0
    }
  }
}
layers {
  bottom: "conv3"
  top: "conv3"
  name: "relu3"
  type: RELU
}
layers {
  bottom: "conv3"
  top: "conv4"
  name: "conv4"
  type: CONVOLUTION
  blobs_lr: 1
  blobs_lr: 2
  weight_decay: 1
  weight_decay: 0
  convolution_param {
    num_output: 384
    pad: 1
    kernel_size: 3
    group: 2
    weight_filler {
      type: "gaussian"
      std: 0.01
    }
    bias_filler {
      type: "constant"
      value: 1
    }
  }
}
layers {
  bottom: "conv4"
  top: "conv4"
  name: "relu4"
  type: RELU
}
layers {
  bottom: "conv4"
  top: "conv5"
  name: "conv5"
  type: CONVOLUTION
  blobs_lr: 1
  blobs_lr: 2
  weight_decay: 1
  weight_decay: 0
  convolution_param {
    num_output: 256
    pad: 1
    kernel_size: 3
    group: 2
    weight_filler {
      type: "gaussian"
      std: 0.01
    }
    bias_filler {
      type: "constant"
      value: 1
    }
  }
}
layers {
  bottom: "conv5"
  top: "conv5"
  name: "relu5"
  type: RELU
}
layers {
  bottom: "conv5"
  top: "pool5"
  name: "pool5"
  type: POOLING
  pooling_param {
    pool: MAX
    kernel_size: 3
    stride: 2
  }
}
layers {
  bottom: "pool5"
  top: "fc6"
  name: "fc6"
  type: INNER_PRODUCT
  blobs_lr: 1
  blobs_lr: 2
  weight_decay: 1
  weight_decay: 0
  inner_product_param {
    num_output: 4096
    weight_filler {
      type: "gaussian"
      std: 0.005
    }
    bias_filler {
      type: "constant"
      value: 1
    }
  }
}
layers {
  bottom: "fc6"
  top: "fc6"
  name: "relu6"
  type: RELU
}
layers {
  bottom: "fc6"
  top: "fc6"
  name: "drop6"
  type: DROPOUT
  dropout_param {
    dropout_ratio: 0.5
  }
}
layers {
  bottom: "fc6"
  top: "fc7"
  name: "fc7"
  type: INNER_PRODUCT
  blobs_lr: 1
  blobs_lr: 2
  weight_decay: 1
  weight_decay: 0
  inner_product_param {
    num_output: 4096
    weight_filler {
      type: "gaussian"
      std: 0.005
    }
    bias_filler {
      type: "constant"
      value: 1
    }
  }
}
layers {
  bottom: "fc7"
  top: "fc7"
  name: "relu7"
  type: RELU
}
layers {
  bottom: "fc7"
  top: "fc7"
  name: "drop7"
  type: DROPOUT
  dropout_param {
    dropout_ratio: 0.5
  }
}
layers {
  bottom: "fc7"
  top: "fc8"
  name: "fc8"
  type: INNER_PRODUCT
  blobs_lr: 1
  blobs_lr: 2
  weight_decay: 1
  weight_decay: 0
  inner_product_param {
    num_output: 1000
    weight_filler {
      type: "gaussian"
      std: 0.01
    }
    bias_filler {
      type: "constant"
      value: 0
    }
  }
}
layers {
  bottom: "fc8"
  bottom: "label"
  top: "loss"
  name: "loss"
  type: SOFTMAX_LOSS
}
state {
  phase: TRAIN
}
I1107 15:06:51.371670 27954 net.cpp:67] Creating Layer data
I1107 15:06:51.371680 27954 net.cpp:356] data -> data
I1107 15:06:51.371695 27954 net.cpp:356] data -> label
I1107 15:06:51.371706 27954 net.cpp:96] Setting up data
I1107 15:06:51.372036 27954 data_layer.cpp:72] Opening lmdb /media/chenqi/C2CE0C08CE0BF407/ILSVRC2012/ilsvrc12_train_lmdb
I1107 15:06:51.372058 27954 data_layer.cpp:86] Skipping first 256 data points.
I1107 15:06:51.372203 27954 data_layer.cpp:134] output data size: 256,3,227,227
I1107 15:06:51.372217 27954 base_data_layer.cpp:36] Loading mean file fromdata/ilsvrc12/imagenet_mean.binaryproto
I1107 15:06:51.427012 27954 net.cpp:103] Top shape: 256 3 227 227 (39574272)
I1107 15:06:51.427050 27954 net.cpp:103] Top shape: 256 1 1 1 (256)
I1107 15:06:51.427067 27954 net.cpp:67] Creating Layer conv1
I1107 15:06:51.427073 27954 net.cpp:394] conv1 <- data
I1107 15:06:51.427091 27954 net.cpp:356] conv1 -> conv1
I1107 15:06:51.427103 27954 net.cpp:96] Setting up conv1
I1107 15:06:51.428602 27954 net.cpp:103] Top shape: 256 96 55 55 (74342400)
I1107 15:06:51.428635 27954 net.cpp:67] Creating Layer relu1
I1107 15:06:51.428642 27954 net.cpp:394] relu1 <- conv1
I1107 15:06:51.428647 27954 net.cpp:345] relu1 -> conv1 (in-place)
I1107 15:06:51.428653 27954 net.cpp:96] Setting up relu1
I1107 15:06:51.428658 27954 net.cpp:103] Top shape: 256 96 55 55 (74342400)
I1107 15:06:51.428664 27954 net.cpp:67] Creating Layer pool1
I1107 15:06:51.428668 27954 net.cpp:394] pool1 <- conv1
I1107 15:06:51.428673 27954 net.cpp:356] pool1 -> pool1
I1107 15:06:51.428679 27954 net.cpp:96] Setting up pool1
I1107 15:06:51.428690 27954 net.cpp:103] Top shape: 256 96 27 27 (17915904)
I1107 15:06:51.428696 27954 net.cpp:67] Creating Layer norm1
I1107 15:06:51.428700 27954 net.cpp:394] norm1 <- pool1
I1107 15:06:51.428705 27954 net.cpp:356] norm1 -> norm1
I1107 15:06:51.428711 27954 net.cpp:96] Setting up norm1
I1107 15:06:51.428719 27954 net.cpp:103] Top shape: 256 96 27 27 (17915904)
I1107 15:06:51.428725 27954 net.cpp:67] Creating Layer conv2
I1107 15:06:51.428730 27954 net.cpp:394] conv2 <- norm1
I1107 15:06:51.428735 27954 net.cpp:356] conv2 -> conv2
I1107 15:06:51.428740 27954 net.cpp:96] Setting up conv2
I1107 15:06:51.436100 27954 net.cpp:103] Top shape: 256 256 27 27 (47775744)
I1107 15:06:51.436117 27954 net.cpp:67] Creating Layer relu2
I1107 15:06:51.436128 27954 net.cpp:394] relu2 <- conv2
I1107 15:06:51.436135 27954 net.cpp:345] relu2 -> conv2 (in-place)
I1107 15:06:51.436151 27954 net.cpp:96] Setting up relu2
I1107 15:06:51.436156 27954 net.cpp:103] Top shape: 256 256 27 27 (47775744)
I1107 15:06:51.436161 27954 net.cpp:67] Creating Layer pool2
I1107 15:06:51.436166 27954 net.cpp:394] pool2 <- conv2
I1107 15:06:51.436170 27954 net.cpp:356] pool2 -> pool2
I1107 15:06:51.436175 27954 net.cpp:96] Setting up pool2
I1107 15:06:51.436180 27954 net.cpp:103] Top shape: 256 256 13 13 (11075584)
I1107 15:06:51.436187 27954 net.cpp:67] Creating Layer norm2
I1107 15:06:51.436190 27954 net.cpp:394] norm2 <- pool2
I1107 15:06:51.436195 27954 net.cpp:356] norm2 -> norm2
I1107 15:06:51.436200 27954 net.cpp:96] Setting up norm2
I1107 15:06:51.436204 27954 net.cpp:103] Top shape: 256 256 13 13 (11075584)
I1107 15:06:51.436210 27954 net.cpp:67] Creating Layer conv3
I1107 15:06:51.436214 27954 net.cpp:394] conv3 <- norm2
I1107 15:06:51.436219 27954 net.cpp:356] conv3 -> conv3
I1107 15:06:51.436225 27954 net.cpp:96] Setting up conv3
I1107 15:06:51.456737 27954 net.cpp:103] Top shape: 256 384 13 13 (16613376)
I1107 15:06:51.456791 27954 net.cpp:67] Creating Layer relu3
I1107 15:06:51.456802 27954 net.cpp:394] relu3 <- conv3
I1107 15:06:51.456810 27954 net.cpp:345] relu3 -> conv3 (in-place)
I1107 15:06:51.456817 27954 net.cpp:96] Setting up relu3
I1107 15:06:51.456822 27954 net.cpp:103] Top shape: 256 384 13 13 (16613376)
I1107 15:06:51.456830 27954 net.cpp:67] Creating Layer conv4
I1107 15:06:51.456835 27954 net.cpp:394] conv4 <- conv3
I1107 15:06:51.456840 27954 net.cpp:356] conv4 -> conv4
I1107 15:06:51.456846 27954 net.cpp:96] Setting up conv4
I1107 15:06:51.472514 27954 net.cpp:103] Top shape: 256 384 13 13 (16613376)
I1107 15:06:51.472558 27954 net.cpp:67] Creating Layer relu4
I1107 15:06:51.472569 27954 net.cpp:394] relu4 <- conv4
I1107 15:06:51.472581 27954 net.cpp:345] relu4 -> conv4 (in-place)
I1107 15:06:51.472591 27954 net.cpp:96] Setting up relu4
I1107 15:06:51.472599 27954 net.cpp:103] Top shape: 256 384 13 13 (16613376)
I1107 15:06:51.472606 27954 net.cpp:67] Creating Layer conv5
I1107 15:06:51.472611 27954 net.cpp:394] conv5 <- conv4
I1107 15:06:51.472616 27954 net.cpp:356] conv5 -> conv5
I1107 15:06:51.472623 27954 net.cpp:96] Setting up conv5
I1107 15:06:51.483189 27954 net.cpp:103] Top shape: 256 256 13 13 (11075584)
I1107 15:06:51.483232 27954 net.cpp:67] Creating Layer relu5
I1107 15:06:51.483243 27954 net.cpp:394] relu5 <- conv5
I1107 15:06:51.483258 27954 net.cpp:345] relu5 -> conv5 (in-place)
I1107 15:06:51.483268 27954 net.cpp:96] Setting up relu5
I1107 15:06:51.483275 27954 net.cpp:103] Top shape: 256 256 13 13 (11075584)
I1107 15:06:51.483285 27954 net.cpp:67] Creating Layer pool5
I1107 15:06:51.483292 27954 net.cpp:394] pool5 <- conv5
I1107 15:06:51.483301 27954 net.cpp:356] pool5 -> pool5
I1107 15:06:51.483310 27954 net.cpp:96] Setting up pool5
I1107 15:06:51.483319 27954 net.cpp:103] Top shape: 256 256 6 6 (2359296)
I1107 15:06:51.483331 27954 net.cpp:67] Creating Layer fc6
I1107 15:06:51.483336 27954 net.cpp:394] fc6 <- pool5
I1107 15:06:51.483342 27954 net.cpp:356] fc6 -> fc6
I1107 15:06:51.483348 27954 net.cpp:96] Setting up fc6
I1107 15:06:52.543524 27954 net.cpp:103] Top shape: 256 4096 1 1 (1048576)
I1107 15:06:52.543567 27954 net.cpp:67] Creating Layer relu6
I1107 15:06:52.543575 27954 net.cpp:394] relu6 <- fc6
I1107 15:06:52.543582 27954 net.cpp:345] relu6 -> fc6 (in-place)
I1107 15:06:52.543589 27954 net.cpp:96] Setting up relu6
I1107 15:06:52.543594 27954 net.cpp:103] Top shape: 256 4096 1 1 (1048576)
I1107 15:06:52.543601 27954 net.cpp:67] Creating Layer drop6
I1107 15:06:52.543604 27954 net.cpp:394] drop6 <- fc6
I1107 15:06:52.543609 27954 net.cpp:345] drop6 -> fc6 (in-place)
I1107 15:06:52.543615 27954 net.cpp:96] Setting up drop6
I1107 15:06:52.543627 27954 net.cpp:103] Top shape: 256 4096 1 1 (1048576)
I1107 15:06:52.543632 27954 net.cpp:67] Creating Layer fc7
I1107 15:06:52.543637 27954 net.cpp:394] fc7 <- fc6
I1107 15:06:52.543642 27954 net.cpp:356] fc7 -> fc7
I1107 15:06:52.543658 27954 net.cpp:96] Setting up fc7
I1107 15:06:53.012300 27954 net.cpp:103] Top shape: 256 4096 1 1 (1048576)
I1107 15:06:53.012341 27954 net.cpp:67] Creating Layer relu7
I1107 15:06:53.012348 27954 net.cpp:394] relu7 <- fc7
I1107 15:06:53.012356 27954 net.cpp:345] relu7 -> fc7 (in-place)
I1107 15:06:53.012362 27954 net.cpp:96] Setting up relu7
I1107 15:06:53.012367 27954 net.cpp:103] Top shape: 256 4096 1 1 (1048576)
I1107 15:06:53.012373 27954 net.cpp:67] Creating Layer drop7
I1107 15:06:53.012377 27954 net.cpp:394] drop7 <- fc7
I1107 15:06:53.012382 27954 net.cpp:345] drop7 -> fc7 (in-place)
I1107 15:06:53.012387 27954 net.cpp:96] Setting up drop7
I1107 15:06:53.012392 27954 net.cpp:103] Top shape: 256 4096 1 1 (1048576)
I1107 15:06:53.012398 27954 net.cpp:67] Creating Layer fc8
I1107 15:06:53.012401 27954 net.cpp:394] fc8 <- fc7
I1107 15:06:53.012406 27954 net.cpp:356] fc8 -> fc8
I1107 15:06:53.012413 27954 net.cpp:96] Setting up fc8
I1107 15:06:53.127051 27954 net.cpp:103] Top shape: 256 1000 1 1 (256000)
I1107 15:06:53.127082 27954 net.cpp:67] Creating Layer loss
I1107 15:06:53.127089 27954 net.cpp:394] loss <- fc8
I1107 15:06:53.127095 27954 net.cpp:394] loss <- label
I1107 15:06:53.127101 27954 net.cpp:356] loss -> loss
I1107 15:06:53.127115 27954 net.cpp:96] Setting up loss
I1107 15:06:53.127153 27954 net.cpp:103] Top shape: 1 1 1 1 (1)
I1107 15:06:53.127159 27954 net.cpp:109]     with loss weight 1
I1107 15:06:53.127187 27954 net.cpp:170] loss needs backward computation.
I1107 15:06:53.127190 27954 net.cpp:170] fc8 needs backward computation.
I1107 15:06:53.127194 27954 net.cpp:170] drop7 needs backward computation.
I1107 15:06:53.127198 27954 net.cpp:170] relu7 needs backward computation.
I1107 15:06:53.127202 27954 net.cpp:170] fc7 needs backward computation.
…
I1107 15:06:53.127817 27954 solver.cpp:152] Creating test net (#0) specified by net file: examples/imagenet/train_val.prototxt
I1107 15:06:53.127846 27954 net.cpp:275] The NetState phase (1) differed from the phase (0) specified by a rule in layer data
I1107 15:06:53.127972 27954 net.cpp:39] Initializing net from parameters: 
name: "CaffeNet"
layers {
  top: "data"
  top: "label"
  name: "data"
  type: DATA
  data_param {
    source: "/media/chenqi/C2CE0C08CE0BF407/ILSVRC2012/ilsvrc12_val_lmdb"
    batch_size: 50
    backend: LMDB
  }
  include {
    phase: TEST
  }
  transform_param {
    mirror: false
    crop_size: 227
    mean_file: "data/ilsvrc12/imagenet_mean.binaryproto"
  }
}
layers {
  bottom: "data"
  top: "conv1"
  name: "conv1"
  type: CONVOLUTION
  blobs_lr: 1
  blobs_lr: 2
  weight_decay: 1
  weight_decay: 0
  convolution_param {
    num_output: 96
    kernel_size: 11
    stride: 4
    weight_filler {
      type: "gaussian"
      std: 0.01
    }
    bias_filler {
      type: "constant"
      value: 0
    }
  }
}
layers {
  bottom: "conv1"
  top: "conv1"
  name: "relu1"
  type: RELU
}
layers {
  bottom: "conv1"
  top: "pool1"
  name: "pool1"
  type: POOLING
  pooling_param {
    pool: MAX
    kernel_size: 3
    stride: 2
  }
}
layers {
  bottom: "pool1"
  top: "norm1"
  name: "norm1"
  type: LRN
  lrn_param {
    local_size: 5
    alpha: 0.0001
    beta: 0.75
  }
}
layers {
  bottom: "norm1"
  top: "conv2"
  name: "conv2"
  type: CONVOLUTION
  blobs_lr: 1
  blobs_lr: 2
  weight_decay: 1
  weight_decay: 0
  convolution_param {
    num_output: 256
    pad: 2
    kernel_size: 5
    group: 2
    weight_filler {
      type: "gaussian"
      std: 0.01
    }
    bias_filler {
      type: "constant"
      value: 1
    }
  }
}
layers {
  bottom: "conv2"
  top: "conv2"
  name: "relu2"
  type: RELU
}
layers {
  bottom: "conv2"
  top: "pool2"
  name: "pool2"
  type: POOLING
  pooling_param {
    pool: MAX
    kernel_size: 3
    stride: 2
  }
}
layers {
  bottom: "pool2"
  top: "norm2"
  name: "norm2"
  type: LRN
  lrn_param {
    local_size: 5
    alpha: 0.0001
    beta: 0.75
  }
}
layers {
  bottom: "norm2"
  top: "conv3"
  name: "conv3"
  type: CONVOLUTION
  blobs_lr: 1
  blobs_lr: 2
  weight_decay: 1
  weight_decay: 0
  convolution_param {
    num_output: 384
    pad: 1
    kernel_size: 3
    weight_filler {
      type: "gaussian"
      std: 0.01
    }
    bias_filler {
      type: "constant"
      value: 0
    }
  }
}
layers {
  bottom: "conv3"
  top: "conv3"
  name: "relu3"
  type: RELU
}
layers {
  bottom: "conv3"
  top: "conv4"
  name: "conv4"
  type: CONVOLUTION
  blobs_lr: 1
  blobs_lr: 2
  weight_decay: 1
  weight_decay: 0
  convolution_param {
    num_output: 384
    pad: 1
    kernel_size: 3
    group: 2
    weight_filler {
      type: "gaussian"
      std: 0.01
    }
    bias_filler {
      type: "constant"
      value: 1
    }
  }
}
layers {
  bottom: "conv4"
  top: "conv4"
  name: "relu4"
  type: RELU
}
layers {
  bottom: "conv4"
  top: "conv5"
  name: "conv5"
  type: CONVOLUTION
  blobs_lr: 1
  blobs_lr: 2
  weight_decay: 1
  weight_decay: 0
  convolution_param {
    num_output: 256
    pad: 1
    kernel_size: 3
    group: 2
    weight_filler {
      type: "gaussian"
      std: 0.01
    }
    bias_filler {
      type: "constant"
      value: 1
    }
  }
}
layers {
  bottom: "conv5"
  top: "conv5"
  name: "relu5"
  type: RELU
}
layers {
  bottom: "conv5"
  top: "pool5"
  name: "pool5"
  type: POOLING
  pooling_param {
    pool: MAX
    kernel_size: 3
    stride: 2
  }
}
layers {
  bottom: "pool5"
  top: "fc6"
  name: "fc6"
  type: INNER_PRODUCT
  blobs_lr: 1
  blobs_lr: 2
  weight_decay: 1
  weight_decay: 0
  inner_product_param {
    num_output: 4096
    weight_filler {
      type: "gaussian"
      std: 0.005
    }
    bias_filler {
      type: "constant"
      value: 1
    }
  }
}
layers {
  bottom: "fc6"
  top: "fc6"
  name: "relu6"
  type: RELU
}
layers {
  bottom: "fc6"
  top: "fc6"
  name: "drop6"
  type: DROPOUT
  dropout_param {
    dropout_ratio: 0.5
  }
}
layers {
  bottom: "fc6"
  top: "fc7"
  name: "fc7"
  type: INNER_PRODUCT
  blobs_lr: 1
  blobs_lr: 2
  weight_decay: 1
  weight_decay: 0
  inner_product_param {
    num_output: 4096
    weight_filler {
      type: "gaussian"
      std: 0.005
    }
    bias_filler {
      type: "constant"
      value: 1
    }
  }
}
layers {
  bottom: "fc7"
  top: "fc7"
  name: "relu7"
  type: RELU
}
layers {
  bottom: "fc7"
  top: "fc7"
  name: "drop7"
  type: DROPOUT
  dropout_param {
    dropout_ratio: 0.5
  }
}
layers {
  bottom: "fc7"
  top: "fc8"
  name: "fc8"
  type: INNER_PRODUCT
  blobs_lr: 1
  blobs_lr: 2
  weight_decay: 1
  weight_decay: 0
  inner_product_param {
    num_output: 1000
    weight_filler {
      type: "gaussian"
      std: 0.01
    }
    bias_filler {
      type: "constant"
      value: 0
    }
  }
}
layers {
  bottom: "fc8"
  bottom: "label"
  top: "accuracy"
  name: "accuracy"
  type: ACCURACY
  include {
    phase: TEST
  }
}
layers {
  bottom: "fc8"
  bottom: "label"
  top: "loss"
  name: "loss"
  type: SOFTMAX_LOSS
}
state {
  phase: TEST
}
I1107 15:06:53.128079 27954 net.cpp:67] Creating Layer data
I1107 15:06:53.128087 27954 net.cpp:356] data -> data
I1107 15:06:53.128095 27954 net.cpp:356] data -> label
I1107 15:06:53.128101 27954 net.cpp:96] Setting up data
I1107 15:06:53.128283 27954 data_layer.cpp:72] Opening lmdb /media/chenqi/C2CE0C08CE0BF407/ILSVRC2012/ilsvrc12_val_lmdb
I1107 15:06:53.128298 27954 data_layer.cpp:86] Skipping first 50 data points.
I1107 15:06:53.128386 27954 data_layer.cpp:134] output data size: 50,3,227,227
I1107 15:06:53.128393 27954 base_data_layer.cpp:36] Loading mean file fromdata/ilsvrc12/imagenet_mean.binaryproto
I1107 15:06:53.140305 27954 net.cpp:103] Top shape: 50 3 227 227 (7729350)
I1107 15:06:53.140331 27954 net.cpp:103] Top shape: 50 1 1 1 (50)
I1107 15:06:53.140338 27954 net.cpp:67] Creating Layer label_data_1_split
I1107 15:06:53.140344 27954 net.cpp:394] label_data_1_split <- label
I1107 15:06:53.140352 27954 net.cpp:356] label_data_1_split -> label_data_1_split_0
I1107 15:06:53.140359 27954 net.cpp:356] label_data_1_split -> label_data_1_split_1
I1107 15:06:53.140365 27954 net.cpp:96] Setting up label_data_1_split
I1107 15:06:53.140373 27954 net.cpp:103] Top shape: 50 1 1 1 (50)
I1107 15:06:53.140377 27954 net.cpp:103] Top shape: 50 1 1 1 (50)
I1107 15:06:53.140384 27954 net.cpp:67] Creating Layer conv1
I1107 15:06:53.140388 27954 net.cpp:394] conv1 <- data
I1107 15:06:53.140393 27954 net.cpp:356] conv1 -> conv1
I1107 15:06:53.140400 27954 net.cpp:96] Setting up conv1
I1107 15:06:53.141222 27954 net.cpp:103] Top shape: 50 96 55 55 (14520000)
I1107 15:06:53.141235 27954 net.cpp:67] Creating Layer relu1
I1107 15:06:53.141240 27954 net.cpp:394] relu1 <- conv1
I1107 15:06:53.141245 27954 net.cpp:345] relu1 -> conv1 (in-place)
I1107 15:06:53.141252 27954 net.cpp:96] Setting up relu1
I1107 15:06:53.141255 27954 net.cpp:103] Top shape: 50 96 55 55 (14520000)
I1107 15:06:53.141261 27954 net.cpp:67] Creating Layer pool1
I1107 15:06:53.141265 27954 net.cpp:394] pool1 <- conv1
I1107 15:06:53.141269 27954 net.cpp:356] pool1 -> pool1
I1107 15:06:53.141275 27954 net.cpp:96] Setting up pool1
I1107 15:06:53.141280 27954 net.cpp:103] Top shape: 50 96 27 27 (3499200)
I1107 15:06:53.141286 27954 net.cpp:67] Creating Layer norm1
I1107 15:06:53.141290 27954 net.cpp:394] norm1 <- pool1
I1107 15:06:53.141295 27954 net.cpp:356] norm1 -> norm1
I1107 15:06:53.141300 27954 net.cpp:96] Setting up norm1
I1107 15:06:53.141305 27954 net.cpp:103] Top shape: 50 96 27 27 (3499200)
I1107 15:06:53.141310 27954 net.cpp:67] Creating Layer conv2
I1107 15:06:53.141314 27954 net.cpp:394] conv2 <- norm1
I1107 15:06:53.141319 27954 net.cpp:356] conv2 -> conv2
I1107 15:06:53.141325 27954 net.cpp:96] Setting up conv2
I1107 15:06:53.148257 27954 net.cpp:103] Top shape: 50 256 27 27 (9331200)
I1107 15:06:53.148272 27954 net.cpp:67] Creating Layer relu2
I1107 15:06:53.148277 27954 net.cpp:394] relu2 <- conv2
I1107 15:06:53.148283 27954 net.cpp:345] relu2 -> conv2 (in-place)
I1107 15:06:53.148288 27954 net.cpp:96] Setting up relu2
I1107 15:06:53.148293 27954 net.cpp:103] Top shape: 50 256 27 27 (9331200)
I1107 15:06:53.148298 27954 net.cpp:67] Creating Layer pool2
I1107 15:06:53.148303 27954 net.cpp:394] pool2 <- conv2
I1107 15:06:53.148308 27954 net.cpp:356] pool2 -> pool2
I1107 15:06:53.148313 27954 net.cpp:96] Setting up pool2
I1107 15:06:53.148318 27954 net.cpp:103] Top shape: 50 256 13 13 (2163200)
I1107 15:06:53.148324 27954 net.cpp:67] Creating Layer norm2
I1107 15:06:53.148327 27954 net.cpp:394] norm2 <- pool2
I1107 15:06:53.148332 27954 net.cpp:356] norm2 -> norm2
I1107 15:06:53.148344 27954 net.cpp:96] Setting up norm2
I1107 15:06:53.148347 27954 net.cpp:103] Top shape: 50 256 13 13 (2163200)
I1107 15:06:53.148360 27954 net.cpp:67] Creating Layer conv3
I1107 15:06:53.148365 27954 net.cpp:394] conv3 <- norm2
I1107 15:06:53.148370 27954 net.cpp:356] conv3 -> conv3
I1107 15:06:53.148375 27954 net.cpp:96] Setting up conv3
I1107 15:06:53.168792 27954 net.cpp:103] Top shape: 50 384 13 13 (3244800)
I1107 15:06:53.168823 27954 net.cpp:67] Creating Layer relu3
I1107 15:06:53.168829 27954 net.cpp:394] relu3 <- conv3
I1107 15:06:53.168835 27954 net.cpp:345] relu3 -> conv3 (in-place)
I1107 15:06:53.168841 27954 net.cpp:96] Setting up relu3
I1107 15:06:53.168845 27954 net.cpp:103] Top shape: 50 384 13 13 (3244800)
I1107 15:06:53.168851 27954 net.cpp:67] Creating Layer conv4
I1107 15:06:53.168855 27954 net.cpp:394] conv4 <- conv3
I1107 15:06:53.168861 27954 net.cpp:356] conv4 -> conv4
I1107 15:06:53.168867 27954 net.cpp:96] Setting up conv4
I1107 15:06:53.184270 27954 net.cpp:103] Top shape: 50 384 13 13 (3244800)
I1107 15:06:53.184299 27954 net.cpp:67] Creating Layer relu4
I1107 15:06:53.184305 27954 net.cpp:394] relu4 <- conv4
I1107 15:06:53.184311 27954 net.cpp:345] relu4 -> conv4 (in-place)
I1107 15:06:53.184319 27954 net.cpp:96] Setting up relu4
I1107 15:06:53.184322 27954 net.cpp:103] Top shape: 50 384 13 13 (3244800)
I1107 15:06:53.184329 27954 net.cpp:67] Creating Layer conv5
I1107 15:06:53.184332 27954 net.cpp:394] conv5 <- conv4
I1107 15:06:53.184339 27954 net.cpp:356] conv5 -> conv5
I1107 15:06:53.184345 27954 net.cpp:96] Setting up conv5
I1107 15:06:53.194416 27954 net.cpp:103] Top shape: 50 256 13 13 (2163200)
I1107 15:06:53.194447 27954 net.cpp:67] Creating Layer relu5
I1107 15:06:53.194453 27954 net.cpp:394] relu5 <- conv5
I1107 15:06:53.194458 27954 net.cpp:345] relu5 -> conv5 (in-place)
I1107 15:06:53.194465 27954 net.cpp:96] Setting up relu5
I1107 15:06:53.194469 27954 net.cpp:103] Top shape: 50 256 13 13 (2163200)
I1107 15:06:53.194476 27954 net.cpp:67] Creating Layer pool5
I1107 15:06:53.194480 27954 net.cpp:394] pool5 <- conv5
I1107 15:06:53.194485 27954 net.cpp:356] pool5 -> pool5
I1107 15:06:53.194491 27954 net.cpp:96] Setting up pool5
I1107 15:06:53.194496 27954 net.cpp:103] Top shape: 50 256 6 6 (460800)
I1107 15:06:53.194502 27954 net.cpp:67] Creating Layer fc6
I1107 15:06:53.194506 27954 net.cpp:394] fc6 <- pool5
I1107 15:06:53.194512 27954 net.cpp:356] fc6 -> fc6
I1107 15:06:53.194519 27954 net.cpp:96] Setting up fc6
I1107 15:06:54.039156 27954 net.cpp:103] Top shape: 50 4096 1 1 (204800)
I1107 15:06:54.039191 27954 net.cpp:67] Creating Layer relu6
I1107 15:06:54.039197 27954 net.cpp:394] relu6 <- fc6
I1107 15:06:54.039204 27954 net.cpp:345] relu6 -> fc6 (in-place)
I1107 15:06:54.039211 27954 net.cpp:96] Setting up relu6
I1107 15:06:54.039216 27954 net.cpp:103] Top shape: 50 4096 1 1 (204800)
I1107 15:06:54.039222 27954 net.cpp:67] Creating Layer drop6
I1107 15:06:54.039225 27954 net.cpp:394] drop6 <- fc6
I1107 15:06:54.039230 27954 net.cpp:345] drop6 -> fc6 (in-place)
I1107 15:06:54.039235 27954 net.cpp:96] Setting up drop6
I1107 15:06:54.039239 27954 net.cpp:103] Top shape: 50 4096 1 1 (204800)
I1107 15:06:54.039245 27954 net.cpp:67] Creating Layer fc7
I1107 15:06:54.039249 27954 net.cpp:394] fc7 <- fc6
I1107 15:06:54.039255 27954 net.cpp:356] fc7 -> fc7
I1107 15:06:54.039261 27954 net.cpp:96] Setting up fc7
I1107 15:06:54.415055 27954 net.cpp:103] Top shape: 50 4096 1 1 (204800)
I1107 15:06:54.415103 27954 net.cpp:67] Creating Layer relu7
I1107 15:06:54.415112 27954 net.cpp:394] relu7 <- fc7
I1107 15:06:54.415122 27954 net.cpp:345] relu7 -> fc7 (in-place)
I1107 15:06:54.415130 27954 net.cpp:96] Setting up relu7
I1107 15:06:54.415137 27954 net.cpp:103] Top shape: 50 4096 1 1 (204800)
I1107 15:06:54.415143 27954 net.cpp:67] Creating Layer drop7
I1107 15:06:54.415148 27954 net.cpp:394] drop7 <- fc7
I1107 15:06:54.415153 27954 net.cpp:345] drop7 -> fc7 (in-place)
I1107 15:06:54.415158 27954 net.cpp:96] Setting up drop7
I1107 15:06:54.415163 27954 net.cpp:103] Top shape: 50 4096 1 1 (204800)
I1107 15:06:54.415181 27954 net.cpp:67] Creating Layer fc8
I1107 15:06:54.415200 27954 net.cpp:394] fc8 <- fc7
I1107 15:06:54.415210 27954 net.cpp:356] fc8 -> fc8
I1107 15:06:54.415218 27954 net.cpp:96] Setting up fc8
I1107 15:06:54.513527 27954 net.cpp:103] Top shape: 50 1000 1 1 (50000)
I1107 15:06:54.513576 27954 net.cpp:67] Creating Layer fc8_fc8_0_split
I1107 15:06:54.513584 27954 net.cpp:394] fc8_fc8_0_split <- fc8
I1107 15:06:54.513593 27954 net.cpp:356] fc8_fc8_0_split -> fc8_fc8_0_split_0
I1107 15:06:54.513604 27954 net.cpp:356] fc8_fc8_0_split -> fc8_fc8_0_split_1
I1107 15:06:54.513612 27954 net.cpp:96] Setting up fc8_fc8_0_split
I1107 15:06:54.513617 27954 net.cpp:103] Top shape: 50 1000 1 1 (50000)
I1107 15:06:54.513622 27954 net.cpp:103] Top shape: 50 1000 1 1 (50000)
I1107 15:06:54.513628 27954 net.cpp:67] Creating Layer accuracy
I1107 15:06:54.513633 27954 net.cpp:394] accuracy <- fc8_fc8_0_split_0
I1107 15:06:54.513638 27954 net.cpp:394] accuracy <- label_data_1_split_0
I1107 15:06:54.513644 27954 net.cpp:356] accuracy -> accuracy
I1107 15:06:54.513651 27954 net.cpp:96] Setting up accuracy
I1107 15:06:54.513667 27954 net.cpp:103] Top shape: 1 1 1 1 (1)
I1107 15:06:54.513676 27954 net.cpp:67] Creating Layer loss
I1107 15:06:54.513682 27954 net.cpp:394] loss <- fc8_fc8_0_split_1
I1107 15:06:54.513687 27954 net.cpp:394] loss <- label_data_1_split_1
I1107 15:06:54.513694 27954 net.cpp:356] loss -> loss
I1107 15:06:54.513700 27954 net.cpp:96] Setting up loss
I1107 15:06:54.513746 27954 net.cpp:103] Top shape: 1 1 1 1 (1)
I1107 15:06:54.513752 27954 net.cpp:109]     with loss weight 1
I1107 15:06:54.513763 27954 net.cpp:170] loss needs backward computation.
I1107 15:06:54.513768 27954 net.cpp:172] accuracy does not need backward computation.
I1107 15:06:54.513772 27954 net.cpp:170] fc8_fc8_0_split needs backward computation.
I1107 15:06:54.513777 27954 net.cpp:170] fc8 needs backward computation.
I1107 15:06:54.513782 27954 net.cpp:170] drop7 needs backward computation.
…
